best_model.pt (torch, 3762 bytes, 5 tensors)

recurrent_block.weight_ih_l0 f4 [40, 1]
00000000: ffc5 b5bd 6486 853f 79a6 d0be c89a 283f
00000010: fc4e b43f 2e68 dc3e eb36 24bf 2eb7 a23d
00000020: 15a8 3a3f 775f a5bf 34db 68be 6321 143f
00000030: c9fe 42be 99d1 a83e ced6 a53f 56d5 873e
00000040: 9772 d53c 9fb7 79be 10eb 173e 5120 bebf
00000050: b47a cfbf 4335 453f 994c 13bf e5b0 793f
00000060: 3fb6 be3f bc42 6fbf 371c 3dbe 4497 21bf
00000070: eb59 2d3f 291e 72bf a2b5 1c3d 4f39 5b3f
00000080: a3e1 84bd 6f4b 163f 7ae3 0740 5110 213f
00000090: 0af4 c5be 8426 553e cea6 183f e155 94bf
-0.088756554 1.0431638 -0.4075201 0.6586118 1.4086604 0.43048233 -0.641463 0.07945095
0.7291272 -1.2919759 -0.2273987 0.57863444 -0.19042505 0.3297241 1.2956178 0.2652995
0.026055617 -0.24386452 0.14835763 -1.4853612 -1.6209321 0.77034396 -0.57538754 0.97535545
1.4899367 -0.93461204 -0.18467794 -0.6312144 0.6771533 -0.9457727 0.038259156 0.8563432
-0.06488349 0.5870885 2.123259 0.6291552 -0.3866275 0.20815474 0.59629524 -1.1588708

recurrent_block.weight_hh_l0 f4 [40, 10]
00000000: 96ec 9c3e 9b68 2cbf 69d7 d03e f959 093c
00000010: a340 d9bd 82f5 423d 761b 3b3e f9bc 843e
00000020: bc35 65be f4ed 49be 1e33 00bf 8d78 d2bd
00000030: bf84 eebe 7b4b b03e 3d49 193e f7a3 63bd
00000040: 1c2a b33c c2a7 be3d 336e 753e bd35 45bd
00000050: 4fed 08be f82f 48be 9f75 e63d fbcc 09be
00000060: 0069 3e3e 30b3 0abd d7bd 6b3e 9955 30bc
00000070: 4e21 5bbe ee43 7fbf 7723 8b3e 1724 723d
00000080: dc13 2d3e 83f5 9cbe 9182 b9be 8800 b5be
00000090: 39b1 76be b4c9 c33e 2e6c c4bb 8baa ff3d
000000a0: e35c 1dbf b0b7 58be 0057 183e ab8a 50bd
000000b0: c09f 523e 68e7 c2bd cda4 813d e206 14be
000000c0: baa0 cfbe cb29 f93c 7ad8 4ebe 2604 313e
000000d0: f0c3 b7be 7aa6 093f 75a2 913d 49e6 10bf
000000e0: 103d 803d 24c9 b63e 22e3 0e3e d475 86bf
000000f0: 01ff a3bd 80fa 5abe 639e ffbe 75b5 23bf
00000100: 5fbd 2bbf d0ad 8dbe 81c9 43be b3dd f8bc
00000110: e4a5 1fbf 196c 8dbf 4ffe e03e 0c12 81be
00000120: ed43 023f f006 03bf c93e e9be 0095 6f3e
00000130: c115 043e 86a2 25bf d3f2 c6be d342 7abe
00000140: 5a26 8d3c ef12 e1bd 8c37 a9be 6258 64be
00000150: 3c18 9bbe f81f bbbe a64f e7bd fc74 a43d
00000160: 8f3b 363e 4526 4cbe 2ada 03bd 4474 de3d
00000170: 7746 b8be 9fd4 2f3f fb0d 853e f58a 2bbf
00000180: be6b 00bf d479 24be d8df 163f e710 c1be
00000190: 0ec5 823e 2872 78bf 8f53 d23e ec01 08bf
000001a0: 0440 cbbe 5712 8a3e 4b52 363e 1ae3 0d3f
000001b0: 9955 5fbe 3716 dabe 08cf a33d b307 eebd
000001c0: ca02 cbbe 5ac7 6ebe 5def 5d3e 5178 e6be
000001d0: 6107 443e bb11 bd3e 6ff6 5d3d e0fc 13bf
000001e0: e3bf 3a3e 3700 c33d 1d6f 34bd 60bd b5be
000001f0: 7b97 253e f40d 44bd a83c 06be 5762 093f
00000200: c3ba abbb bb63 a2bf 618f c7bd 27d2 b0bd
00000210: f387 0f3d 4064 33be e77a 97be 6bbe 51be
00000220: 7146 5bbe fb52 c13e 3e65 c03d 30bb 1ebf
00000230: 6869 bf3b e046 2ebe 6bc3 f23d f685 b5be
00000240: 78ea 25be 32c3 d93e c55a a43e a310 9c3d
00000250: 99ed 0ebf 0066 48be 65fa 94be 0aed 173e
00000260: 733e ccbe 96c0 093f 3ec5 353e 148d f9be
00000270: 55e8 50be 2e27 073f 722d 8c3e 0097 97bf
00000280: 6838 5fbe f514 9ebe e5ed e3bc 4e2d 04be
00000290: f86e e0be 52c1 5fbe 5b5e e6bd fcce 62be
000002a0: fccc abbe cc24 14bf 3e50 0a3f 7951 8cbe
000002b0: 0be7 453e 71cb 13bf 88c6 00bf 6afc 383f
000002c0: 1ba7 913e 66da d6be a50c 7dbe 4c68 e1be
000002d0: 7973 83bd dced 4d3e 955b f4be f01d 20be
000002e0: 5104 00bf 97e6 3e3d f579 953e 9a6a ea3e
000002f0: 7c3b bdbe c537 44bf ed0e 5bbe 24bc 2abe
00000300: 1dd2 a93d f2b1 993e 782f e2bc 019c b0be
00000310: 4817 ba3d cf48 d6bb 4d9c 01be ec64 46bf
00000320: 020d 02be eac8 aabe fde1 01be 4e93 f63e
00000330: e5d8 c83e 0b91 1bbf c265 49be cbd5 6a3e
00000340: 1130 093f 904c 8a3e eba8 9dbe 839f dcbe
00000350: 139a 16be 4194 45be 2b8f 26be c849 a7be
00000360: df05 463e aa1a cbbc 0b71 39bd c55d e33d
00000370: 760f 1cbe ecf0 c0be 8845 debe 2c29 f0bd
00000380: ff16 a03e 9cf1 ce3e f1c3 453b 4fc6 fd3e
00000390: 0ba1 bdbc eaa2 07bf 68f3 723e 1037 e7be
000003a0: ebc0 9e3e 6134 b0b9 21d6 a43d fe1e b43d
000003b0: b626 75be 65bf 103d 8430 4abe ada7 4cbe
000003c0: 8098 26bf fa54 963e 4c27 bebe 0bbe f0bd
000003d0: f088 e4bd 11c3 9cbe f944 0bbf 0d93 7d3e
000003e0: e7ce 9cbc 7134 bfbe 4b2f 86be 2098 38be
000003f0: 465a c8be 0151 0ebe dc09 a43e 15ef 89be
0.3064925 -0.67347115 0.40789345 0.008383268 -0.106080316 0.047597416 0.18272194 0.25925425
-0.2238378 -0.19719678 -0.50078 -0.102768995 -0.46585652 0.34432587 0.14969344 -0.05557629
0.021870665 0.09309341 0.23967819 -0.048146952 -0.13371776 -0.19549549 0.11252903 -0.134571
0.18594742 -0.033862293 0.23021637 -0.010762596 -0.21399423 -0.9971303 0.27175495 0.05911645
0.16902107 -0.3065606 -0.36232427 -0.35351968 -0.24091043 0.38239825 -0.0059943413 0.124837
-0.6146986 -0.21163821 0.14876938 -0.050913494 0.20568752 -0.095167935 0.063302614 -0.1445575
-0.40552312 0.030415436 -0.20199767 0.17286739 -0.35891676 0.5376965 0.07111064 -0.5660139
0.06261647 0.35700333 0.13953832 -1.0504708 -0.080076225 -0.2138462 -0.49925527 -0.63948756
-0.6708583 -0.2767167 -0.19119836 -0.030379152 -0.62362504 -1.1048614 0.43944022 -0.2520908
0.50884897 -0.5118246 -0.45555714 0.23396683 0.12898923 -0.64701116 -0.38857135 -0.24439554
0.017230202 -0.109899394 -0.3305019 -0.2229934 -0.30291927 -0.36547828 -0.112944886 0.080301255
0.17796157 -0.19936474 -0.03219048 0.1086202 -0.3599126 0.6868381 0.2598723 -0.67008907
-0.501644 -0.16062099 0.5893531 -0.37708208 0.25540966 -0.9704919 0.41079375 -0.5312793
-0.39697278 0.26967117 0.1780483 0.55424654 -0.21809997 -0.42595074 0.079984725 -0.11622562
-0.39650565 -0.23318234 0.21673341 -0.4501367 0.1914344 0.3692759 0.054190096 -0.5780773
0.18237261 0.09521525 -0.04405128 -0.35496044 0.16171066 -0.04786487 -0.13109076 0.5366568
-0.0052407696 -1.2686685 -0.09744144 -0.086338334 0.03504176 -0.17518711 -0.29585955 -0.20482795
-0.2141359 0.37758622 0.093943104 -0.62004375 0.005841423 -0.17019224 0.11853679 -0.35453767
-0.16202724 0.42531735 0.32100502 0.07620361 -0.55831295 -0.1957016 -0.29097286 0.14836517
-0.39891395 0.5380949 0.17751023 -0.48740447 -0.20401128 0.5279416 0.27378422 -1.1842957
-0.21798861 -0.30875364 -0.027823398 -0.12907907 -0.43834662 -0.2185109 -0.112484656 -0.22149271
-0.33554828 -0.5786865 0.5402869 -0.2740591 0.19326417 -0.577323 -0.50302935 0.72260153
0.28447804 -0.419635 -0.24711855 -0.44024885 -0.06418509 0.20110267 -0.47726122 -0.1563642
-0.50006586 0.046606626 0.29194608 0.45784456 -0.36959445 -0.766476 -0.21392412 -0.16673332
0.08292029 0.30018574 -0.027610525 -0.34494022 0.09086472 -0.006539441 -0.1265728 -0.77497745
-0.12700275 -0.3335641 -0.12683864 0.4815926 0.39227977 -0.60768193 -0.19667724 0.22933118
0.5358897 0.27011538 -0.30792937 -0.43090448 -0.14707212 -0.19294836 -0.16265552 -0.32673478
0.19338177 -0.024792988 -0.04527382 0.111018695 -0.15240273 -0.3768381 -0.43412423 -0.11726603
0.31267545 0.40418708 0.0030176605 0.4956536 -0.02314808 -0.5298296 0.23725665 -0.45159197
0.3100656 -0.0003360836 0.08048654 0.08794974 -0.23940548 0.035338778 -0.1974507 -0.19985838
-0.65076447 0.29361707 -0.37139356 -0.11754998 -0.11158931 -0.30617574 -0.5440212 0.24763127
-0.019141627 -0.37344697 -0.26207957 -0.18026781 -0.39131373 -0.13898088 0.32038772 -0.26940218

recurrent_block.bias_ih_l0 f4 [40]
00000000: 38c0 23be 1923 f43e aeea 93be 4db9 453e
00000010: 1088 b83e 7dc8 5dbd 24aa e9bf 7e0a cc3d
00000020: 3d3e 053e 5774 22be 5be5 46be d1af ebbe
00000030: 7144 52bf e5da f1bd eef7 bbbd 13d0 a8bd
00000040: 1061 89bf b9e1 35be ceec 9cbe bb2a ccbe
00000050: 5e98 c13d ae16 b03d 55d2 d93d 4cb4 81be
00000060: 64bd 31bd 8ffb bdbd 48ac 04bd 4bc4 92bb
00000070: 8598 3b3e 4e97 793e 2025 4e3e cbc3 1b3f
00000080: 3426 033b 52de 00bd ed93 94be 256a 8b3e
00000090: ad62 dfbf d36c 99be 44bc 29be e4b3 453e
-0.15991294 0.47683027 -0.28889984 0.19308968 0.36041307 -0.05414628 -1.8255048 0.09962939
0.13012023 -0.15864693 -0.1942343 -0.46032575 -0.82135683 -0.11809329 -0.09178148 -0.08242812
-1.0732746 -0.17761888 -0.30649418 -0.3987635 0.0945289 0.08598076 0.10635821 -0.25332868
-0.043393508 -0.092764966 -0.032390863 -0.0044789664 0.183199 0.24374124 0.2013135 0.6084563
0.0020011785 -0.03146202 -0.29019108 0.2722942 -1.7451988 -0.2996584 -0.16575724 0.19306904

recurrent_block.bias_hh_l0 f4 [40]
00000000: 4a9c c93d 0c15 fe3d 5400 efbe f1ec 35bc
00000010: 6626 05be f104 d9bd bd09 b7bf 002d 54be
00000020: 1265 2f3e b4e6 c73e 3304 9abd f86a 22bd
00000030: efb5 fabe e665 32be a6ae 4bbe fe98 14be
00000040: 967e 5ebf 738d 33be eb08 debe 3a11 b1be
00000050: 6eda 123d 2e29 12be 6e4b 4a3d 9244 533e
00000060: 6dd7 ae3d a31c 5b3e acc5 19bb 8d32 c1ba
00000070: f6d7 43be 68d3 adbd f4c8 64bd 8eb7 073e
00000080: fcc9 0dbe 3ae8 6bbe 18f0 a1be b92e 18be
00000090: a524 a7bf 137a c5be 87f2 313e d5b9 ed3d
0.09844263 0.12406358 -0.46679938 -0.0111038545 -0.13002929 -0.105966456 -1.4299847 -0.20720291
0.17128399 0.390432 -0.07520332 -0.039652795 -0.4896693 -0.17421684 -0.19890842 -0.14511487
-0.86911905 -0.17534427 -0.4336618 -0.34583455 0.035852842 -0.14273521 0.04938834 0.20631626
0.08537183 0.21397643 -0.002346377 -0.0014739797 -0.19125351 -0.08487588 -0.055855706 0.13253614
-0.13846582 -0.23037806 -0.3162849 -0.14861573 -1.3058058 -0.38569698 0.17377673 0.1160771

fc.weight f4 [1, 10]
00000000: 8567 09bf a841 0d3f a358 37be 8f58 f03e
00000010: 06dc e43e c35f a3be 3b84 20bc bb21 f9be
00000020: 5778 853e 9632 00bf
-0.53673583 0.5517831 -0.17904906 0.46942565 0.44699115 -0.31908998 -0.009797151 -0.48658547
0.26068375 -0.5007719
