NN Implementation/best_model.pt (torch, 798959 bytes, 5 tensors)

recurrent_block.weight_ih_l0 f4 [768, 1]
0.041402675 0.07127344 0.0028380754 0.073083565 -0.011612585 0.02660839 -0.013976194 0.03154545
0.058618724 -0.045605954 0.0706249 0.012336853 0.06494833 0.020586884 0.045472983 -0.014349894
0.06331069 0.02373999 -0.027848829 0.027686976 -0.01068507 0.012873863 -0.0077604647 0.038168203
-0.03965854 -0.009216666 -0.01190412 -0.018296236 0.006979696 -0.043608747 0.071882814 -0.034071445
0.06600989 0.029656585 -0.02997421 0.049069222 0.015845478 0.06695831 0.026221482 -0.021345343
0.032909654 -0.0041506942 0.044605747 0.07359301 0.053667776 -0.024900785 0.04512077 0.00096462795
0.025388232 -0.02035382 -0.07822162 -0.0047605755 -0.029121535 0.06419953 0.026065426 0.044062525
0.01516649 0.011462413 0.066375874 -0.026833836 -0.0040098983 -0.02993611 0.023205008 -0.01331326
0.036643784 -0.02746521 0.058536448 -0.047373053 -0.021387856 -0.044981796 0.07502289 0.02006784
0.077801816 -0.055876374 -0.077136435 -0.03483058 -0.023696493 0.03598828 0.03337257 0.06279637
-0.016903026 -0.04861599 0.049527474 -0.03680304 0.026407886 0.0016612638 0.03742712 -0.036888245
-0.01925747 0.029733166 0.033018623 -0.00940626 0.049288534 0.06148628 -0.05133255 -0.015385148
0.07767113 -0.0053908555 -0.03324988 -0.043521885 -0.01888706 0.020105215 0.0016380101 -0.033995863
0.010379478 -0.05416717 -0.06578374 -0.041998316 -0.037635837 -0.034522552 0.08035894 0.031515516
0.030554723 -0.039810535 -0.022955524 -0.00282241 0.025448048 -0.043049023 -0.040762883 -0.01813503
0.017280733 -0.031715687 -0.0013868422 -0.028028965 -0.033496067 -0.045507092 -0.008445342 -0.03168564
0.063411035 0.006712976 0.072754174 0.015445942 -0.04963513 0.052012812 -0.011100649 -0.02825649
-0.03394244 -0.045859076 0.010927207 -0.0007983482 0.044379845 -0.03415875 0.0504181 -0.050645538
-0.009470554 0.029585658 0.05065815 0.054948837 0.07521114 -0.030501656 0.033510096 -0.015953783
-0.010316794 -0.031269383 0.067504525 -0.029206261 0.041818704 0.03208111 0.03211837 -0.015939692
0.048886113 0.030900795 0.029118583 -0.03576658 0.010799872 0.0064247 -0.044825237 0.07156689
0.030492434 -0.019299787 -0.014025316 0.016690468 0.025930835 0.0018760867 -0.023786962 -0.030361446
-0.053243782 0.042429157 0.06507139 -0.061714448 0.003025302 0.049616 0.022986893 -0.0071483697
0.04435701 0.05095131 0.031392097 0.005424165 0.0016563194 0.019398656 -0.008568175 -0.031877868
0.04913227 0.064553455 -0.0015548838 0.005134516 0.020583695 0.014935739 0.032997515 0.007989304
-0.04098872 -0.006390718 0.044213347 0.04354879 -0.012141942 -0.01959448 -0.021313237 -0.06909123
-0.002813163 0.00936128 0.057736177 0.04733426 -0.047903582 -0.019014886 0.0092895515 0.07989815
-0.0019018559 0.0010674464 0.045571957 -0.0065641436 -0.050141998 0.0638306 -0.013063556 -0.0025383271
-0.04552273 0.06124156 0.037960887 0.04228844 -0.033759184 -0.061560217 -0.03508013 0.06572856
0.019944895 0.06686698 0.02253982 0.032774698 0.017242655 -0.04149666 -0.036017988 -0.039094497
0.033272423 -0.014036603 0.004214379 -0.050540943 0.003747073 -0.02531004 -0.022987075 0.036846045
-0.012344616 0.05744966 -0.020173436 -0.059482045 0.009873556 -0.013053396 -0.018199889 -0.04042957
00000000: da95 293d cff7 913d 01ff 393b d6ac 953d
00000010: b642 3ebc d7f9 d93c 68fc 64bc cd35 013d
00000020: 301a 703d 4fcd 3abd caa3 903d 8320 4a3c
00000030: a103 853d d3a5 a83c e141 3a3d d11b 6bbc
00000040: 09a9 813d 5e7a c23c 3a23 e4bc cccf e23c
00000050: 6f10 2fbc e5ec 523c 7f4b febb 4356 1c3d
00000060: fe70 22bd 8001 17bc 8009 43bc fde1 95bc
00000070: efb5 e43b 169f 32bd 4c37 933d 808e 0bbd
00000080: 3130 873d 5ef2 f23c 798c f5bc cffc 483d
00000090: 60ce 813c 7021 893d 6fce d63c 6edc aebc
000000a0: 46cc 063d 8c02 88bb 84b4 363d efb7 963d
000000b0: bed2 5b3d bbfc cbbc 8ed0 383d 16df 7c3a
000000c0: fbfa cf3c 0ebd a6bc a832 a0bd 9afe 9bbb
000000d0: 4990 eebc 0b7b 833d 2987 d53c e87a 343d
000000e0: df7c 783c d8cc 3b3c 13f0 873d a2d2 dbbc
000000f0: 7765 83bb 933c f5bc 6e18 be3c dc1f 5abc
00000100: cb17 163d b8fe e0bc eac3 6f3d 3f0a 42bd
00000110: 9635 afbc d53e 38bd 9aa5 993d 5065 a43c
00000120: 8f56 9f3d a0de 64bd b5f9 9dbd 83aa 0ebd
00000130: 261f c2bc 7268 133d adb1 083d 629b 803d
00000140: 3778 8abc 8f21 47bd 52dd 4a3d c9be 16bd
00000150: 5a55 d83c c3be d93a 2e4d 193d 2118 17bd
00000160: d7c1 9dbc f892 f33c 893e 073d b71c 1abc
00000170: c6e2 493d 0ad9 7b3d 1442 52bd fd11 7cbc
00000180: 0b12 9f3d c6a5 b0bb 0731 08bd 0144 32bd
00000190: 09b9 9abc b1b3 a43c 80b2 d63a 3f3f 0bbd
000001a0: b00e 2a3c 65de 5dbd a0b9 86bd 6d06 2cbd
000001b0: 0928 1abd 8567 0dbd 3a93 a43d 6a16 013d
000001c0: e64d fa3c 5f10 23bd 390d bcbc 2ff8 38bb
000001d0: 6d78 d03c 2c54 30bd fbf6 26bd ea8f 94bc
000001e0: 5390 8d3c 4fe8 01bd b4c6 b5ba 009d e5bc
000001f0: 2c33 09bd a565 3abd 555e 0abc cdc8 01bd
00000200: a5dd 813d 86f8 db3b 2400 953d fa10 7d3c
00000210: 354e 4bbd 630b 553d 7fdf 35bc 287a e7bc
00000220: 3a07 0bbd bad6 3bbd 0708 333c 3e48 51ba
00000230: a4c7 353d 0cea 0bbd 3683 4e3d b271 4fbd
00000240: 622a 1bbc 9f5d f23c ec7e 4f3d 0812 613d
00000250: 4c08 9a3d 9cde f9bc e241 093d 82b1 82bc
00000260: c507 29bc 5314 00bd d03f 8a3d f841 efbc
00000270: 174a 2b3d 7b67 033d 8d8e 033d f593 82bc
00000280: ce3c 483d aa23 fd3c 188a ee3c fa7f 12bd
00000290: f2f1 303c 4a86 d23b ab9a 37bd a991 923d
000002a0: 45cb f93c 961a 9ebc 70ca 65bc 73ba 883c
000002b0: e76c d43c 06e7 f53a e0dc c2bc 91b8 f8bc
000002c0: 2716 5abd 32ca 2d3d 2644 853d 4ac8 7cbd
000002d0: 2544 463b 263a 4b3d 024f bc3c df3c eabb
000002e0: b2af 353d 52b2 503d 0095 003d 32bd b13b
000002f0: db18 d93a eee9 9e3c 8861 0cbc 5e92 02bd
00000300: eb3e 493d 9a34 843d 3ecd cbba 713f a83b
00000310: 239f a83c 08b5 743c 6728 073d 92e5 023c
00000320: cae3 27bd 3a69 d1bb 0e19 353d 3760 323d
00000330: ffee 46bc 9a84 a0bc 1999 aebc b47f 8dbd
00000340: 0b5d 38bb 0e60 193c c57c 6c3d 92e1 413d
00000350: 8c36 44bd 1bc5 9bbc 3433 183c a4a1 a33d
00000360: b247 f9ba 8fe9 8b3a a9a9 3a3d 0718 d7bb
00000370: b261 4dbd 9eb9 823d 8608 56bc 105a 26bb
00000380: 0b76 3abd 6ed8 7a3d e07c 1b3d a536 2d3d
00000390: 1247 0abd 9126 7cbd 2fb0 0fbd b29c 863d
000003a0: 7a63 a33c 8ef1 883d 6ea5 b83c c33e 063d
000003b0: 7840 8d3c 67f8 29bd 9987 13bd 8d21 20bd
000003c0: aa48 083d c8f9 65bc c618 8a3b 0504 4fbd
000003d0: 7491 753b 0057 cfbc 644f bcbc e1eb 163d
000003e0: 1341 4abc 5650 6b3d c342 a5bc 72a3 73bd
000003f0: b2c4 213c e9dd 55bc ef17 95bc 7a99 25bd

recurrent_block.weight_hh_l0 f4 [768, 256]
-0.041922547 0.064812005 0.026960215 0.030090122 -0.040127825 -0.023266815 -0.00914047 -0.016842162
-0.043601766 -0.0023852733 0.0054508564 -0.014956841 0.009820119 -0.020751843 0.016834827 0.025647456
-0.031160459 -0.061488364 0.03273673 0.015437018 -0.034049552 0.057035554 -0.03352732 0.039468236
0.03555674 -0.05243702 0.04085895 -0.058011234 -0.03130493 -0.009732743 -0.04162157 0.06222727
-0.01564294 0.027821999 -0.062318087 0.035663992 -0.017716093 -0.044562973 0.008122908 0.028725654
0.057410683 -0.039097756 -0.030607875 0.012875932 0.0156787 0.02015008 0.033514634 -0.022997089
0.03018804 0.045795325 -0.023280945 0.046559013 0.031255517 0.055985022 -0.029592656 -0.029011348
-0.017350994 0.0031371037 0.03645516 -0.035254307 0.03479741 -0.022271004 0.036566027 -0.0021690663
-0.05484232 -0.036476012 -0.043434348 0.038846336 -0.042263318 -0.0022221678 0.012844625 -0.03941697
0.018816633 -0.061262757 -0.03999782 -0.057425473 -0.018824548 -0.018537309 0.0051745083 -0.016080314
0.035614595 0.050785013 0.023259021 -0.02317495 -0.05738206 0.022866895 -0.031949114 0.032969195
0.042644907 0.022556122 0.059596308 0.061381176 0.015407873 -0.04445053 0.055095516 -0.027760338
-0.033335 0.048697684 0.040506054 0.019557951 0.0036056149 -0.05196876 -0.0074654226 0.05962268
0.017295644 0.009624358 -0.006388346 -0.029381312 0.03512687 0.003710175 0.044480626 -0.006326355
0.02661534 0.029306743 0.011427499 0.038431223 0.041260988 0.057256397 0.054078985 -0.0146430675
-0.0529134 0.005162313 0.002463735 -0.016515624 -0.0056560547 0.0005410119 0.046163548 0.0198642
-0.025316108 -0.025478354 -0.016312493 -0.024137404 0.06008669 0.031743243 0.05238722 -0.0024600553
0.012694778 0.022369059 -0.06603933 0.0058797947 -0.005481747 -0.03126216 -0.047669116 0.050711308
0.04949642 0.033117678 0.06267043 -0.026141165 -0.0043169376 0.024597295 -0.010004305 -0.0149486875
-0.05404573 0.014556362 -0.03729414 0.0023148959 0.060399864 -0.01952452 -0.018820347 0.038527373
-0.024538955 -0.0064825215 0.06374418 -0.031611927 -0.050883934 -0.034534633 -0.01574392 -0.02990434
-0.032677677 0.02774389 0.011353746 -0.016739346 -0.04939584 -0.021036698 -0.023590378 -0.021299481
-0.051757712 0.019170163 -0.046661958 -0.050017595 -0.053184066 0.025920045 -0.036908824 -0.027816493
0.047694188 0.03277335 0.039483592 -0.06244075 -0.045628615 -0.024072908 0.051617242 0.01297604
-0.046804044 0.0023037374 -0.05073269 -0.012579631 -0.015499137 0.05379749 0.021089012 -0.018538442
0.011590266 -0.017432591 0.024403555 0.023004469 0.008519306 -0.021914925 0.052866485 -0.0048524113
-0.024233075 0.034318145 0.05098227 0.06094406 0.021956896 -0.022364948 0.031416416 0.055389997
-0.05320133 -0.0076084994 -0.04260075 0.012223562 0.024820747 -0.013896003 -0.0067257625 0.026990935
-0.009157265 -0.05203952 0.044623036 -0.036343057 -0.008119418 0.0011219906 -0.005652359 -0.060251173
0.036662966 -0.027502326 -0.04182079 0.018871302 -0.032863945 -0.033707395 -0.020282334 -0.021940013
-0.024646116 -0.01615403 0.014581104 -0.043441974 -0.037526634 -0.0011307753 0.008821769 0.03317167
-0.035260543 0.02007316 0.03602816 0.036073834 -0.055342566 -0.02409866 -0.05703016 -0.038487893
00000000: fab6 2bbd 28bc 843d abdb dc3c 8f7f f63c
00000010: 135d 24bd 0c9a bebc e9c1 15bc 93f8 89bc
00000020: c497 32bd 3f52 1cbb 199d b23b 8a0d 75bc
00000030: 90e4 203c c5ff a9bc 31e9 893c 9d1a d23c
00000040: 3844 ffbc 39db 7bbd f316 063d 8ceb 7c3c
00000050: 8b77 0bbd 1d9e 693d f153 09bd 72a9 213d
00000060: f2a3 113d 33c8 56bd b75b 273d 309d 6dbd
00000070: 9939 00bd 1576 1fbc 617b 2abd 06e2 7e3d
00000080: 9f25 80bc f6ea e33c 4041 7fbd 6814 123d
00000090: 5721 91bc aa87 36bd f215 053c 1052 eb3c
000000a0: 7727 6b3d f824 20bd 5ebd fabc 93f5 523c
000000b0: 9e70 803c c811 a53c a446 093d 6464 bcbc
000000c0: e94c f73c e193 3b3d aeb7 bebc aab4 3e3d
000000d0: c905 003d 8d50 653d 4c6c f2bc 35a9 edbc
000000e0: ac23 8ebc de97 4d3b 0152 153d d266 10bd
000000f0: bb87 0e3d ae71 b6bc 42c6 153d e526 0ebb
00000100: 57a2 60bd df67 15bd 37e8 31bd 561d 1f3d
00000110: 4d1c 2dbd caa1 11bb 4372 523c b073 21bd
00000120: 5725 9a3c a8ee 7abd c1d4 23bd f936 6bbd
00000130: f035 9abc 8edb 97bc ec8e a93b ddba 83bc
00000140: 9ce0 113d f203 503d b489 be3c 65d9 bdbc
00000150: 7309 6bbd 5b53 bb3c 13dd 02bd b50a 073d
00000160: 6dac 2e3d 9ec7 b83c 421b 743d d46a 7b3d
00000170: 4e71 7c3c c211 36bd d6ab 613d a669 e3bc
00000180: 488a 08bd 3977 473d ade9 253d ff37 a03c
00000190: 2e4c 6c3b 32dd 54bd 81a0 f4bb e936 743d
000001a0: 98af 8d3c 7caf 1d3c 5555 d1bb 14b1 f0bc
000001b0: 31e1 0f3d 6826 733b 5131 363d 504d cfbb
000001c0: 6a08 da3c b214 f03c 683a 3b3c 0f6a 1d3d
000001d0: 4801 293d af85 6a3d ed81 5d3d 7ae9 6fbc
000001e0: b9bb 58bd 9f28 a93b 9d76 213b c64b 87bc
000001f0: 6d56 b9bb b2d2 0d3a fd15 3d3d 3fba a23c
00000200: ba63 cfbc fbb7 d0bc c7a1 85bc cebb c5bc
00000210: 761d 763d 3405 023d fb93 563d e138 21bb
00000220: c2fd 4f3c 513f b73c a13f 87bd 4bab c03b
00000230: 3aa0 b3bb c00c 00bd b140 43bd a9b6 4f3d
00000240: c2bc 4a3d 67a6 073d 5b59 803d ff25 d6bc
00000250: 1975 8dbb 4480 c93c 19e9 23bc 57eb 74bc
00000260: 0e5f 5dbd cf7d 6e3c bdc1 18bd 82b5 173b
00000270: d965 773d e3f1 9fbc 212d 9abc e1ce 1d3d
00000280: eb05 c9bc 556b d4bb 4f8c 823d 827b 01bd
00000290: ac6b 50bd 3074 0dbd 65f9 80bc f2f9 f4bc
000002a0: 07d9 05bd 2847 e33c 1005 3a3c f420 89bc
000002b0: 4b53 4abd 2755 acbc 9c40 c1bc 407c aebc
000002c0: e5ff 53bd bf0a 9d3c 9c20 3fbd 40df 4cbd
000002d0: 89d7 59bd 4656 d43c b52d 17bd 6adf e3bc
000002e0: fb5a 433d 593d 063d 8cb9 213d dfc1 7fbd
000002f0: 12e5 3abd 8c34 c5bc 9a6c 533d 7599 543c
00000300: 99b5 3fbd 4dfa 163b 15cd 4fbd cc1a 4ebc
00000310: 18f0 7dbc c25a 5c3d ddc2 ac3c eedd 97bc
00000320: 19e5 3d3c cbce 8ebc f7e9 c73c de73 bc3c
00000330: 8f94 0b3c ee86 b3bc 878a 583d fa00 9fbb
00000340: 7184 c6bc 2f91 0c3d c9d2 503d 7ba0 793d
00000350: f3de b33c b236 b7bc 80ae 003d 9fe0 623d
00000360: a3e9 59bd b850 f9bb 207e 2ebd 5645 483c
00000370: e154 cb3c 10ac 63bc c963 dcbb 181c dd3c
00000380: 5a08 16bc 6427 55bd a5c6 363d 75dc 14bd
00000390: 4f07 05bc c20f 933a 6d37 b9bb efc9 76bd
000003a0: e82b 163d 8f4c e1bc 474c 2bbd fd97 9a3c
000003b0: 589c 06bd c410 0abd 2327 a6bc 8bbb b3bc
000003c0: a7e6 c9bc 7555 84bc 95e5 6e3c 36f0 31bd
000003d0: 87b5 19bd 8636 94ba 2e89 103c 04df 073d
000003e0: 5c6d 10bd 7870 a43c 4492 133d 28c2 133d
000003f0: e3ae 62bd 8e6a c5bc 7598 69bd 7ba5 1dbd

recurrent_block.bias_ih_l0 f4 [768]
-0.046832144 0.020142673 -0.04187007 0.010478593 0.0025328137 0.04017868 -0.01259232 0.06568668
-0.010221387 0.029352222 0.013223503 -0.021719871 -0.011638888 -0.010543226 -0.0239841 0.0349136
0.014199801 -0.037497837 -0.018432077 0.03399312 -0.0266555 0.06901132 0.012879725 -0.023649186
0.010627172 -0.019025343 -0.04606289 -0.0073954924 -0.06381769 -0.0023411755 0.016746776 0.009629082
0.06475955 -0.016944773 -0.0036692563 -0.047965385 -0.022087526 -0.04901069 0.052740615 0.048077412
0.059832368 -0.03599877 0.0563828 0.031249586 0.058156516 -0.045353748 0.016890401 0.033371914
0.049925447 0.06400911 0.03811564 0.06788565 0.040013306 -0.04049838 0.029348614 0.041903343
0.051318247 -0.059297748 -0.04072765 0.050171915 0.04685579 -0.055529412 -0.064341016 -0.024436451
-0.031614397 -0.04210585 -0.01722647 -0.050672866 0.009861479 0.023787918 -0.04539459 -0.012602156
-0.017111775 -0.0045996425 -0.06190056 -0.0043294393 0.0050414326 -0.023199836 0.046718124 0.054678492
0.027192555 -0.03327752 0.044091925 -0.067627214 -0.05166369 0.017433412 0.002649733 0.03379567
-0.023476234 -0.045370046 -0.04782941 -0.0077161575 0.010501658 -0.030961743 -0.028511861 -0.014289336
-0.03383922 0.051232688 -0.034295626 0.013782094 0.055388637 0.034544077 -0.0042109843 -0.0027662502
0.0067130104 -0.036771525 -0.04105784 0.03557621 -0.033788383 0.012125625 0.041954704 -0.0397423
-0.00064558594 -0.014810678 0.025824158 -0.054115675 -0.041033033 0.052552488 0.012737175 0.015012309
-0.045332413 -0.018376395 -0.04845793 -0.03760592 0.053959843 -0.006330588 0.008346361 -0.054227527
-0.03352546 0.0074409926 0.027771115 0.044470165 -0.010760662 0.022065066 0.028705506 0.019485235
0.042002857 0.044648305 0.078306414 0.007152586 -0.05236873 0.06370559 -0.043794774 -0.00621352
-0.03394634 -0.03738569 0.010245547 -0.026681116 0.061839644 0.030326407 0.03430851 -0.057233308
-0.009645048 -0.021611191 0.032212887 0.036411673 -0.05609921 -0.06204804 0.061847985 -0.016538054
-0.06423072 -0.01934526 0.013907304 0.06296055 -0.049451213 -0.043948017 0.03177116 0.022984304
0.046910413 0.0030410995 0.023084238 0.058626257 0.023194807 -0.004942847 -0.04222531 -0.03020841
-0.048574682 -0.055765033 0.030317526 0.023144925 0.037683997 -0.031540107 -0.022503646 0.057106253
-0.022957163 0.030389398 -0.063586935 -0.048750613 0.04989098 -0.048904322 -0.0030779517 0.04278823
0.056857966 -0.04628806 0.037187826 0.025160667 0.060851634 0.033668548 0.028023403 0.039417822
-0.023475906 0.05517467 0.009804434 0.06362024 -0.032082498 -0.04646019 -0.017240029 -0.03629767
0.008731079 -0.011919451 0.026031721 0.019242514 0.03558646 0.026684267 0.061276373 0.065451056
0.062033866 0.06828995 0.0015426382 -0.03494361 -0.059248663 -0.0059757014 0.000463762 -0.007941418
0.011851022 0.015519146 -0.015539705 -0.053330228 0.014262623 0.017738737 -0.022545625 0.04677457
-0.037432 -0.03437154 0.06719472 0.037477076 0.016066777 0.03666757 -0.025654415 0.0015517471
-0.04547208 -0.051663388 -0.014814024 0.040262222 -0.045539755 -0.0062479964 0.030420002 -0.05401414
0.039388824 0.062237132 -0.039859876 0.030032752 1.6935792e-06 -0.04585892 -0.050537482 -0.015533766
00000000: 10d3 3fbd 3f02 a53c f37f 2bbd 68ae 2b3c
00000010: 90fd 253b 6692 243d 0550 4ebc bd86 863d
00000020: 9b77 27bc 1274 f03c 64a7 583c dfed b1bc
00000030: 09b1 3ebc 7fbd 2cbc 4e7a c4bc 9001 0f3d
00000040: 48a6 683c 5597 19bd defe 96bc 5f3c 0b3d
00000050: a35c dabc cf55 8d3d 7b05 533c f0bb c1bc
00000060: 971d 2e3c 09db 9bbc 71ac 3cbd e355 f2bb
00000070: d9b2 82bd 686e 19bb 8930 893c 4cc3 1d3c
00000080: a8a0 843d c4cf 8abc e877 70bb 5a77 44bd
00000090: e6f0 b4bc 6fbf 48bd 8b06 583d d2ec 443d
000000a0: c912 753d 7273 13bd a7f1 663d 22ff ff3c
000000b0: 8735 6e3d dac4 39bd bd5d 8a3c fdb0 083d
000000c0: a07e 4c3d 3517 833d 251f 1c3d a207 8b3d
000000d0: fee4 233d a1e1 25bd 816c f03c d7a2 2b3d
000000e0: 1533 523d 32e2 72bd 09d2 26bd 1181 4d3d
000000f0: dbeb 3f3d cf72 63bd 39c5 83bd f42e c8bc
00000100: 197e 01bd 2f77 2cbd 871e 8dbc 5a8e 4fbd
00000110: 0a92 213c e1de c23c adef 39bd 4679 4ebc
00000120: fe2d 8cbc 99b8 96bb 718b 7dbd f8dd 8dbb
00000130: 9a32 a53b 950d bebc 815b 3f3d 8ef6 5f3d
00000140: ecc2 de3c 024e 08bd bc99 343d 2380 8abd
00000150: 4e9d 53bd 84d0 8e3c 25a7 2d3b 546d 0a3d
00000160: 3b51 c0bc f1d5 39bd c5e8 43bd d2d7 fcbb
00000170: 250f 2c3c 7ba3 fdbc b591 e9bc d21d 6abc
00000180: fe9a 0abd 5ed9 513d 9279 0cbd 4bce 613c
00000190: 32df 623d 177e 0d3d 4cfc 89bb fa49 35bb
000001a0: d0f8 db3b bd9d 16bd 442c 28bd 5cb8 113d
000001b0: b065 0abd 8faa 463c b2d8 2b3d d2c8 22bd
000001c0: 8a3c 29ba 7ca8 72bc 2f8d d33c 66a8 5dbd
000001d0: 4112 28bd 4741 573d 96af 503c 30f6 753c
000001e0: 7bae 39bd 188a 96bc d37b 46bd aa08 1abd
000001f0: ff04 5d3d d270 cfbb 2dbf 083c af1d 5ebd
00000200: fe51 09bd 92d3 f33b 4080 e33c 5926 363d
00000210: 7d4d 30bc ccc1 b43c cf27 eb3c 809f 9f3c
00000220: 300b 2c3d 24e1 363d 1d5f a03d 3d60 ea3b
00000230: 9880 56bd 1478 823d 2662 33bd c99a cbbb
00000240: 510b 0bbd bd21 19bd f0dc 273c 5b92 dabc
00000250: 914b 7d3d 166f f83c 1587 0c3d 796d 6abd
00000260: 4306 1ebc f409 b1bc a9f1 033d 6824 153d
00000270: 49c8 65bd 1626 7ebd 5054 7d3d d07a 87bc
00000280: 658b 83bd f379 9ebc 76db 633c 76f1 803d
00000290: 5b8d 4abd d602 34bd 7a22 023d 9449 bc3c
000002a0: 2225 403d 2f4d 473b 281b bd3c 1622 703d
000002b0: 0903 be3c 9bf7 a1bb 72f4 2cbd a177 f7bc
000002c0: 3ff6 46bd e069 64bd 765c f83c 6d9a bd3c
000002d0: 895a 1a3d 3330 01bd 9159 b8bc 3fe8 693d
000002e0: a910 bcbc 30f3 f83c de39 82bd b9ae 47bd
000002f0: 7c5a 4c3d e64f 48bd 76b7 49bb b642 2f3d
00000300: e6e3 683d 8c98 3dbd 4352 183d be1d ce3c
00000310: 903f 793d 08e8 093d 5691 e53c 9574 213d
00000320: 8b50 c0bc d6fe 613d c7a2 203c 544b 823d
00000330: f068 03bd 0a4d 3ebd f63a 8dbc deac 14bd
00000340: cd0c 0f3c cd49 43bc 7a40 d53c 7aa2 9d3c
00000350: 1cc3 113d f798 da3c effc 7a3d 340b 863d
00000360: 3917 7e3d 9adb 8b3d 5932 ca3a 0821 0fbd
00000370: baae 72bd d1cf c3bb 1525 f339 b91c 02bc
00000380: ca2a 423c 0444 7e3c 3f9a 7ebc cc70 5abd
00000390: c7ad 693c d450 913c 9ab1 b8bc b196 3f3d
000003a0: 4c52 19bd 2cc9 0cbd 639d 893d 9081 193d
000003b0: 799e 833c bc30 163d 3529 d2bc fe63 cb3a
000003c0: ef40 3abd fd9c 53bd 85b6 72bc 00ea 243d
000003d0: e587 3abd febb ccbb 5e33 f93c ee3d 5dbd
000003e0: 2d56 213d 5dec 7e3d 1c44 23bd 3f07 f63c
000003f0: f04e e335 90d6 3bbd 6400 4fbd 5681 7ebc

recurrent_block.bias_hh_l0 f4 [768]
0.060380377 0.03996549 7.720114e-05 0.007715397 -0.0037769638 -0.016829705 -0.027863475 0.030717423
0.03057819 0.07875093 -0.02079117 0.04026119 -0.011273139 -0.035257827 -0.0095163025 0.023039669
0.03040895 -0.024062155 -0.06542547 0.0024648923 -0.044882692 0.0031117313 0.028802916 0.0027500608
-0.049094163 -0.03366389 0.021353789 0.030995453 0.019962981 -0.0062296595 -0.045721423 -0.007661616
0.03666625 0.018358491 0.047281478 0.045797482 0.053485863 0.051801298 -0.038264092 -0.023532165
-0.03821495 -0.023016559 0.01813652 0.035360217 0.023304578 0.012752442 0.043448474 -0.035399947
0.006816537 -0.012226825 0.050225306 0.059433505 -0.038273063 -0.03692979 0.039138027 -0.018103395
0.040010277 0.013257714 0.041047312 0.022257837 0.01541694 0.052106053 0.03626145 0.06051819
0.021758744 -0.03176079 -0.00038826113 0.051861346 -0.05350938 0.013681438 0.031640053 0.052581716
0.021478424 0.051101428 0.011706846 -0.058223687 -0.023456963 0.018060043 -0.02287982 0.060423475
-0.016376927 0.058833607 0.040547676 -0.06782777 -0.011730189 -0.0487804 -0.020962853 0.008094765
-0.027286595 0.0055803177 -0.05256888 0.021719763 -0.019089174 -0.048751928 0.007923428 0.0074249096
-0.05223149 -0.011546216 -0.047591515 0.031208096 0.009440389 0.00808699 -0.0018697946 -0.06452265
0.00915759 -0.014145664 -0.035144687 -0.0033952522 0.006869506 -0.033718776 0.058272757 -0.056230597
0.008771605 0.018006895 0.011875988 -0.0048309593 -0.035347242 0.029937832 -0.0324717 0.027910884
0.016027786 -0.019061767 -0.030990535 0.011788199 -0.009722824 -0.050606996 0.056492753 -0.056840625
-0.00839668 -0.045660388 0.03604076 0.027512757 -0.057029884 0.065226875 -0.037907943 -0.025777025
0.00721729 -0.010521162 0.05069436 0.058859173 -0.005649835 -0.03164391 0.02807607 -0.03277988
0.021046957 -0.01107602 0.043306176 0.024857584 0.0057238583 -0.050940182 0.0392754 0.03600942
-0.028824849 -0.047411002 0.04147261 -0.03639456 -0.0208777 0.015432936 -0.00526485 -0.020501228
-0.06400155 0.062088355 0.036152456 -0.021138726 -0.022327274 0.0115279285 -0.063530535 0.030122122
0.021604793 -0.012067925 0.031962294 -0.010636046 0.058344215 0.051989052 0.04788827 -0.03937084
-0.039862275 0.057876624 0.008614186 0.0389216 0.0028866353 -0.054724045 0.059365507 0.031458504
-0.014139877 0.014709186 0.009332869 0.0050812727 0.0026839995 -0.058088936 -0.012765345 -0.046091523
-0.028365552 -0.011182069 -0.04716493 0.0521561 0.011335237 0.0028819272 0.037031684 -0.049071856
-0.05543447 0.04588598 0.033451974 -0.025021967 -0.023401398 -0.0461557 0.013430479 -0.048001606
0.057537466 0.024823815 0.04397867 -0.05100764 0.0099875415 0.056274872 -0.042512603 -0.055487007
-0.05498337 0.053954635 0.015433136 -0.020953208 -0.010011151 -0.049598143 -0.048425343 -0.020281611
0.024291912 -0.024590388 -0.031950668 -0.03181118 -0.0049647675 0.0060946164 -0.04951819 0.030334571
0.027840244 -0.01664664 -0.0006893079 0.04998204 -0.031712685 0.00083978183 0.004265186 -0.04650824
0.006103279 -0.031227376 -0.021981714 0.026069205 -0.050565515 -0.028508805 0.02699647 0.037876222
0.04242015 0.023973648 0.0350319 0.016584234 0.0043600453 0.05348997 -0.03350081 -0.05601056
00000000: 6a51 773d dbb2 233d 0ce7 a138 71d1 fc3b
00000010: f086 77bb 73de 89bc f141 e4bc 1ba3 fb3c
00000020: 1d7f fa3c 2b48 a13d 3e52 aabc ebe8 243d
00000030: f9b2 38bc 836a 10bd 44ea 1bbc b0bd bc3c
00000040: 311c f93c ff1d c5bc cafd 85bd 088a 213b
00000050: ead6 37bd 30ee 4b3b 18f4 eb3c 5d3a 343b
00000060: f616 49bd 26e3 09bd 24ee ae3c 2dea fd3c
00000070: 6889 a33c 2c22 ccbb 6346 3bbd 4b0e fbbb
00000080: 5a2f 163d 8c64 963c 39aa 413d 2496 3b3d
00000090: fe13 5b3d 992d 543d cfba 1cbd 87c6 c0bc
000000a0: 4887 1cbd 398d bcbc 0a93 943c e0d5 103d
000000b0: 3ee9 be3c 9eef 503c 07f7 313d 89ff 10bd
000000c0: 425d df3b 0553 48bc 0db9 4d3d 8c70 733d
000000d0: 37c4 1cbd b143 17bd 324f 203d 924d 94bc
000000e0: d1e1 233d e236 593c 3a21 283d 1156 b63c
000000f0: 5597 7c3c 286d 553d e386 143d ece1 773d
00000100: 653f b23c 9a17 02bd 878f cbb9 906c 543d
00000110: a72c 5bbd 1c28 603c 0099 013d ed5f 573d
00000120: 85f3 af3c bb4f 513d 12ce 3f3c f67b 6ebd
00000130: d128 c0bc a8f2 933c 766e bbbc 9b7e 773d
00000140: e828 86bc 82fb 703d 5215 263d 49e9 8abd
00000150: fb2f 40bc f5cd 47bd 4aba abbc e89f 043c
00000160: 2388 dfbc 19db b63b 7752 57bd a5ed b13c
00000170: e660 9cbc 1ab0 47bd 44d1 013c a84c f33b
00000180: b0f0 55bd 572c 3dbc 52ef 42bd 1fa8 ff3c
00000190: ddab 1a3c 4b7f 043c e513 f5ba 7324 84bd
000001a0: b709 163c 37c3 67bc e0f3 0fbd e182 5ebb
000001b0: 9819 e13b b31c 0abd 6aaf 6e3d 0e52 66bd
000001c0: c7b6 0f3c 3283 933c 8193 423c 064d 9ebb
000001d0: 45c8 10bd 2f40 f53c 0c01 05bd 5ea5 e43c
000001e0: b44c 833c 6c27 9cbc dddf fdbc 4a23 413c
000001f0: 7b4c 1fbc 4849 4fbd f264 673d b7d1 68bd
00000200: 3a92 09bc 6306 3bbd 7a9f 133d 6f62 e13c
00000210: 2b98 69bd ab95 853d 5c45 1bbd 572a d3bc
00000220: 047f ec3b f460 2cbc e4a4 4f3d 5116 713d
00000230: 4022 b9bb 0b9d 01bd c9ff e53c 3244 06bd
00000240: ab6a ac3c 3278 35bc d161 313d 22a2 cb3c
00000250: 348f bb3b a7a6 50bd 3edf 203d 9d7e 133d
00000260: 1722 ecbc 0a32 42bd 2fdf 293d 7612 15bd
00000270: b607 abbc 6dda 7c3c c384 acbb 31f2 a7bc
00000280: 3f13 83bd 5c50 7e3d 9914 143d 1f2b adbc
00000290: b0e7 b6bc a3df 3c3c 4c1c 82bd abc2 f63c
000002a0: 89fc b03c 8cb8 45bc e5ea 023d cf42 2ebc
000002b0: 58fa 6e3d 79f2 543d 7e26 443d 5143 21bd
000002c0: a046 23bd 0a10 6d3d 8422 0d3c 416c 1f3d
000002d0: b42d 3d3b 5226 60bd 3f29 733d a2da 003d
000002e0: f1aa 67bc ccfe 703c e4e8 183c ce80 a63b
000002f0: 0ae6 2f3b aaee 6dbd bd25 51bc 77ca 3cbd
00000300: e05e e8bc ff34 37bc 0330 41bd a2a1 553d
00000310: 6eb7 393c b7de 3c3b 89ae 173d 92ff 48bd
00000320: 410f 63bd f0f2 3b3d f004 093d defa ccbc
00000330: 4ab4 bfbc c20d 3dbd 830b 5c3c 559d 44bd
00000340: 68ac 6b3d 505b cb3c fa22 343d 63ed 50bd
00000350: c9a2 233c 7b80 663d b221 2ebd 5846 63bd
00000360: 3e36 61bd 89ff 5c3d 44db 7c3c 10a6 abbc
00000370: d005 24bc 6c27 4bbd a759 46bd 9f25 a6bc
00000380: d5ff c63c c871 c9bc b4de 02bd 714c 02bd
00000390: 7daf a2bb 59b5 c73b 96d3 4abd 3580 f83c
000003a0: 3911 e43c 895e 88bc acb2 34ba f8b9 4c3d
000003b0: 29e5 01bd ce24 5c3a f9c2 8b3b 6d7f 3ebd
000003c0: 04fe c73b 8ed0 ffbc ff12 b4bc 168f d53c
000003d0: c91d 4fbd 4c8b e9bc b327 dd3c 1924 1b3d
000003e0: c0c0 2d3d 6264 c43c 9c7d 0f3d a9db 873c
000003f0: b6de 8e3b 4c18 5b3d 2538 09bd 546b 65bd

fc.weight f4 [1, 256]
-0.04465347 -0.051877357 -0.04045327 0.03464354 -0.020984365 0.056757256 -0.025611937 -0.025390264
0.010996968 -0.00085448415 0.04918272 -0.042185243 0.027762994 0.043825284 0.00080315775 -0.007533004
-0.04295872 -0.0017789155 -0.0107799545 0.053061806 0.039309915 0.01858507 0.07263106 -0.024604525
0.047268387 -0.03342914 -0.057076972 0.03163251 -0.019066207 0.031087711 0.050165363 -0.052819423
0.06611072 0.04250619 -0.012701479 0.06571221 0.015425115 0.03475456 0.009334056 -0.0335154
0.0003901124 0.049054474 0.059229273 0.009593435 0.010638344 -0.018882478 0.040375274 -0.01943591
-0.056278124 -0.023634434 -0.03027829 0.056749366 -0.014941789 0.039863244 0.029436052 0.010443665
0.040245242 0.013039143 0.064656824 0.06400094 -0.037370097 -0.011663749 -0.039771788 0.0021501477
0.056479394 0.005310548 -0.04600908 -0.03721116 0.020893559 -0.038771227 0.035969287 -0.03282599
-0.057454664 0.015798174 -0.044100087 0.025186632 -0.04823985 0.01807762 0.020191422 0.008939268
-0.014268995 -0.028555669 0.040677857 0.050969698 -0.031349324 0.06463828 0.05538614 -0.014914528
-0.0031958614 0.04456653 -0.055625245 0.0017058911 -0.048170697 0.027346209 0.05292219 -0.026709102
0.047445823 0.043403737 -0.0064007924 0.013474474 0.05598299 0.019604847 0.004703408 0.016682422
-0.053888313 -0.021172553 -0.019997893 -0.024503276 0.064758 0.035043266 -0.019637339 0.0022463794
0.052044272 0.054057077 0.029393524 -0.04225693 -0.024859488 0.024759505 -0.03435954 -0.047763914
-0.0085572 -0.04851466 0.008005075 0.06494398 0.00019732863 -0.027553838 0.044475652 -0.062298626
0.053526897 0.062495664 0.031187939 -0.054197405 -0.02810861 -0.0036325778 -0.035824697 -0.01824479
0.017945971 -0.0092930775 -0.019476358 -0.018789418 0.0085995495 -0.061485186 -0.017121889 -0.003932442
-0.05184596 0.056458365 0.033510663 -0.03408783 -0.028330516 0.048407912 0.043230303 0.027667288
-0.027613435 0.013946497 0.032981455 0.009559872 -0.04353168 0.0128783155 0.025382513 0.0029327485
-0.042393427 0.039127477 -0.009499966 0.07069298 0.00325615 0.058377914 0.004157394 0.06407045
0.04016509 -0.03326278 0.046599604 -0.04933893 0.011428464 0.057587955 -0.044886056 0.0527151
0.03279242 0.005877561 0.06699352 0.008293984 -0.019110449 -0.042125784 0.0011601374 0.074933484
0.022236807 0.032591153 0.036567632 0.04192087 0.027169606 0.00086215883 -0.0519413 -0.06727046
-0.021356575 -0.057733543 0.024596192 -0.010660484 -0.027240977 -0.013572827 0.048090156 -0.034683853
-0.027364926 0.025677629 0.008379629 0.020229924 -0.013322105 -0.023010187 -0.0011419505 -0.01942765
0.048543036 0.005661968 -0.03860356 0.049568497 0.012097476 0.005156507 -0.05867295 -0.0038009882
-0.038037226 0.027141465 0.041613743 0.015640885 0.020129329 0.05497513 0.06293595 0.03244722
-0.062173314 0.058472402 -0.03581541 0.028847577 0.03752047 -0.054209374 0.018914586 0.03159782
-0.037729107 -0.031178795 -0.0032073779 0.03859701 0.06416333 -0.013612323 0.036748447 0.027727619
0.031997196 0.050215535 0.061415922 -0.052377537 -0.00028282034 0.043101627 -0.050680876 0.06618729
-0.023580393 -0.044475205 0.011921956 0.042828135 0.048579447 -0.019068815 -0.022408374 -0.046306
00000000: 8fe6 36bd 5a7d 54bd 54b2 25bd 62e6 0d3d
00000010: 67e7 abbc 4c7a 683d 20d0 d1bc 3eff cfbc
00000020: a02c 343c 76ff 5fba d273 493d 6fca 2cbd
00000030: 386f e33c 2482 333d 018b 523a 6bd7 f6bb
00000040: 7cf5 2fbd 802a e9ba 689e 30bc 5657 593d
00000050: 6f03 213d b73f 983c 98bf 943d 6e8f c9bc
00000060: 7f9c 413d feec 08bd 8bc9 69bd 1791 013d
00000070: bc30 9cbc a8ab fe3c 327a 4d3d 2e59 58bd
00000080: 0f65 873d f81a 2e3d dd19 50bc 2094 863d
00000090: 9fb9 7c3c cc5a 0e3d deed 183c 7247 09bd
000000a0: 0088 cc39 58ed 483d 659a 723d c82d 1d3c
000000b0: 734c 2e3c 6daf 9abc 8b60 253d 0f38 9fbc
000000c0: e483 66bd 009d c1bc 2d0a f8bc 0672 683d
000000d0: 68ce 74bc a447 233d e023 f13c e81b 2b3c
000000e0: 32d8 243d 21a2 553c cc6a 843d ed12 833d
000000f0: 6311 19bd 4f19 3fbc bee7 22bd 7ee9 0c3b
00000100: f056 673d 1b04 ae3b 0474 3cbd bb6a 18bd
00000110: f828 ab3c 94ce 1ebd 8854 133d 8c74 06bd
00000120: 9555 6bbd 2c6b 813c 4ba2 34bd 3254 ce3c
00000130: 2697 45bd 8417 943c 7b68 a53c 0276 123c
00000140: 81c8 69bc 94ed e9bc d39d 263d 9ac5 503d
00000150: 2668 00bd 1361 843d 94dc 623d 105c 74bc
00000160: a871 51bb 658b 363d 4cd7 63bd 3598 df3a
00000170: a34e 45bd 2805 e03c f0c4 583d 0ccd dabc
00000180: 8d56 423d 1ec8 313d bdbd d1bb 0ac4 5c3c
00000190: 6b4e 653d 589a a03c 0c1f 9a3b 93a9 883c
000001a0: feb9 5cbd 1072 adbc 9fd2 a3bc 18bb c8bc
000001b0: d89f 843d 8789 0f3d 7cde a0bc fe37 133b
000001c0: 602c 553d f46a 5d3d b0ca f03c 9a15 2dbd
000001d0: 20a6 cbbc 72d4 ca3c 97bc 0cbd 18a4 43bd
000001e0: 8033 0cbc 4fb7 46bd b827 033c 5901 853d
000001f0: 00ea 4e39 96b8 e1bc 1a2c 363d d82c 7fbd
00000200: 053f 5b3d 74fb 7f3d d97d ff3c 19fe 5dbd
00000210: 0744 e6bc 8b10 6ebb ebbc 12bd 1976 95bc
00000220: 6e03 933c fe41 18bc e28c 9fbc 44ec 99bc
00000230: 20e5 0c3c e4d7 7bbd 3443 8cbc b7db 80bb
00000240: 6e5c 54bd e340 673d 7a42 093d ae9f 0bbd
00000250: 6615 e8bc 6047 463d 4212 313d 82a6 e23c
00000260: 9235 e2bc d97f 643c 9017 073d 02a1 1c3c
00000270: 464e 32bd 92ff 523c fdee cf3c 5b33 403b
00000280: bba4 2dbd 2244 203d bfa5 1bbc 7bc7 903d
00000290: 2265 553b ae1d 6f3d c03a 883b 5e37 833d
000002a0: 2684 243d 8e3e 08bd 3adf 3e3d 9e17 4abd
000002b0: 743e 3b3c 59e1 6b3d 71da 37bd caeb 573d
000002c0: 5851 063d 8e98 c03b e633 893d 7ee3 073c
000002d0: 848d 9cbc 168c 2cbd c00f 983a ba76 993d
000002e0: f729 b63c 4d7e 053d f1c7 153d 38b5 2b3d
000002f0: cb92 de3c 8002 623a 67c0 54bd 18c5 89bd
00000300: fcf3 aebc 027a 6cbd f47d c93c 50a9 2ebc
00000310: 7828 dfbc 9060 5ebc 2ffa 443d a810 0ebd
00000320: 692c e0bc e459 d23c b64a 093c 3ab9 a53c
00000330: f544 5abc dc7f bcbc 80ad 95ba bc26 9fbc
00000340: 10d5 463d 0888 b93b c41e 1ebd 5608 4b3d
00000350: 7e34 463c eaf7 a83b 0c53 70bd 001a 79bb
00000360: eccc 1bbd c757 de3c 2c73 2a3d 5021 803c
00000370: 43e6 a43c 9a2d 613d 90e4 803d 60e7 043d
00000380: 72a9 7ebd c280 6f3d 2eb3 12bd c151 ec3c
00000390: 10af 193d a60a 5ebd c3f2 9a3c b76c 013d
000003a0: d689 1abd ac6a ffbc df32 52bb e617 1e3d
000003b0: 1068 833d 3906 5fbc 8a85 163d 0825 e33c
000003c0: 7e0f 033d ceae 4d3d 438f 7b3d d489 56bd
000003d0: 8147 94b9 558b 303d c096 4fbd 348d 873d
000003e0: ab2b c1bc a22b 36bd 4f54 433c 8e6c 2f3d
000003f0: 3efb 463d 3436 9cbc c491 b7bc 5cab 3dbd
